AI/MachineLearning/Deep_learning/MINIST_WRITING/models/mnist_torch.pt (torch, 411359 bytes, 4 tensors)

weight f4 [128, 784]
000000 2e de d4 3c ea 79 dc bc 25 ae 02 3b b4 33 0e 3d
       0.02598485 -0.026913602 0.0019940224 0.034717277
000010 2c 48 a0 bc ca 06 04 3d b7 f7 14 3c 77 c8 a3 3b
       -0.019565664 0.032233037 0.009092263 0.0049982625
000020 e5 20 fd 3b 25 62 e8 bb f5 69 d8 bc fe 22 96 3c
       0.0077248686 -0.007091778 -0.026417712 0.018327232
000030 b2 ae cf 3c d2 fa e7 3c 1e 97 d3 3d dd dc 3b 3d
       0.025351856 0.028317843 0.10331558 0.04586493
000040 4a d0 69 3b 76 00 0f bd 41 ed 77 bc b7 60 07 bd
       0.0035677128 -0.03491255 -0.015132249 -0.03305122
000050 4e 30 20 bc e1 38 b7 bc ba b6 fe bc ba 96 d7 bc
       -0.009777142 -0.02236599 -0.03109299 -0.02631699
000060 ea b9 82 bc 83 64 8d 3c ec 52 bb bc 2e 1f 1a 3c
       -0.015957791 0.017259842 -0.022866689 0.009406848
000070 e8 97 ee 3c c0 4f 05 bd b0 77 85 3c 7a 08 9e 3c
       0.029125169 -0.03254676 0.016292423 0.019291151
000080 27 ed 37 3b 0f a3 b4 3a ae ea 03 3d e5 ab 10 3d
       0.0028064938 0.0013781505 0.03220623 0.03532018
000090 78 7f 13 bc 9d 3b 77 3b 31 bd 49 bd 54 69 24 3d
       -0.009002559 0.0037724741 -0.049252693 0.04013951
0000a0 76 84 64 3d 59 7f bd 3d 82 7b 8c bd 0b 1f 85 bd
       0.055790387 0.09252805 -0.06859495 -0.065000616
0000b0 c5 38 2a 3e 25 88 22 3e 98 4d bc 3d d0 c8 af 3d
       0.16623218 0.15872248 0.09194487 0.08583224
0000c0 d9 20 80 3d fd ba 7b bd 77 39 02 3d 13 dc 8c 3c
       0.06256265 -0.061457623 0.031793084 0.017194783
0000d0 4a 8f e5 bb 9c 57 10 3d e7 eb ad bc 9d 6d 00 bd
       -0.007005607 0.0352398 -0.021230651 -0.031354535
0000e0 6c 70 ee bc 88 10 09 3d 2c 9d b7 3c 45 ac c2 3d
       -0.029106341 0.03346303 0.022413813 0.09505514
0000f0 6c c4 2b 3d 32 db ae 3d 3e 33 16 3e ea 55 ab 3d
       0.04193537 0.08537902 0.14667985 0.08365996
000100 b7 18 26 3e 9d 3b 83 3e 50 81 73 3e 20 96 1c 3e
       0.16220365 0.2563142 0.23779798 0.15291643
000110 57 0e 35 3e 90 4a e0 3b ec 48 b1 3d 60 c4 af 3c
       0.17681251 0.006844826 0.08656487 0.021455944
000120 21 47 cd bc 67 29 c1 3c ce fc b5 3d 55 1a 7d bd
       -0.025058331 0.023579312 0.08886109 -0.06179269
000130 90 a9 c4 bd 5a a0 90 3d 8a a0 1b 3d b6 8b 83 3e
       -0.09602654 0.07061835 0.0379949 0.25692528
000140 7d 40 e6 3d 19 c0 b2 3d 9e 97 fa 3c ca 13 79 3c
       0.11242769 0.08728046 0.030589875 0.015202472
000150 78 f1 f0 bb 12 1e 0b 3d ca 03 80 bd 3e 6b d8 3d
       -0.007353004 0.033964224 -0.06250723 0.1056733
000160 ac 15 2d 3e 1c 12 97 bd e8 fc 0e 3b 49 58 84 bd
       0.16902798 -0.07376501 0.0021818224 -0.064621516
000170 70 e5 6a bd 56 29 00 3e af 9a 98 bd 13 3a f9 bc
       -0.057347715 0.12515768 -0.074513786 -0.0304232
000180 13 39 85 bc 3b b8 f0 3c e1 e7 a9 3d 90 35 7d 3d
       -0.016262567 0.029384723 0.082961805 0.06181866
000190 6b 8d 03 3c 93 c7 4d 3c 94 34 63 bb 16 ca 4e bd
       0.008029322 0.012559789 -0.003466879 -0.050485693
0001a0 02 35 8f be 2e c9 90 3d 97 c7 61 3e 57 83 90 3d
       -0.2797013 0.07069622 0.22048794 0.07056301
0001b0 29 da 5a 3e 2e 9e 54 3e df ac 1d 3e 48 bd de bc
       0.21372284 0.20763466 0.15397976 -0.027189866
0001c0 35 d5 b6 bc bc 7c 4e bd 69 2d dd bd 3d 09 6b bd
       -0.022318462 -0.050411925 -0.10799677 -0.057381857
0001d0 3e be 19 be 48 85 04 be 1b 18 93 bd 26 29 d9 bd
       -0.15013978 -0.12941468 -0.07182332 -0.106035516
0001e0 40 f9 8c be 0f f2 1a be 79 f1 1f be 9a 50 08 be
       -0.27533913 -0.151314 -0.15619458 -0.13311997
0001f0 be 25 03 bc 2e a1 8d 3d 56 72 4f 3e 26 fd 77 3d
       -0.008004604 0.06915508 0.2025846 0.060544156
000200 ad b4 9d 3c f6 18 e8 3c bc b4 6c bc 55 96 25 3d
       0.019251192 0.028332215 -0.014447387 0.04042657
000210 65 c5 b0 3d 46 0e 2d 3d 57 e1 e3 3d 18 98 46 3e
       0.086314 0.04224994 0.111269645 0.19393957
000220 da 35 5f 3e 7e 28 67 3e ac 4c 50 3e 22 cb e9 3d
       0.21797886 0.2257404 0.20341748 0.11415698
000230 8a 64 fa bb 05 c1 0a 3d 72 4a 10 bd 61 19 68 bd
       -0.0076413797 0.033875484 -0.035227247 -0.05666483
000240 0a 6e 02 be 72 21 0b be 47 63 6c bd bb ae 1a be
       -0.12737289 -0.13586977 -0.057711866 -0.15105717
000250 ab b4 29 be 12 ba 35 be 39 b9 0f be ad bc a5 3c
       -0.16572826 -0.17746761 -0.140355 0.02023157
000260 54 33 4d 3d 32 5f b3 3d 16 a6 21 3e 7e da d9 3d
       0.05009778 0.087583914 0.15786013 0.10637377
000270 84 d2 02 3e 18 cc f6 3d 53 1d 7e 3d 2d a1 ea ba
       0.12775618 0.120506465 0.062039685 -0.0017900817
000280 d4 8a ac 3b 49 32 e5 3d a9 d4 22 3c fc 77 8a bc
       0.005265573 0.11191232 0.009938397 -0.016902916
000290 2a 8e b1 3d 69 dc 8e 3e 16 dd 19 3e 09 de 23 3e
       0.08669694 0.27902535 0.15025744 0.16002668
0002a0 27 79 d0 3c f0 5c f0 3b 63 ce dd 3d f0 4c ae bd
       0.025448395 0.0073352978 0.10830381 -0.085107684
0002b0 48 11 01 be 6c 8f e6 bd a6 1a 4a be 73 24 5e be
       -0.12604249 -0.11257824 -0.19736728 -0.21693592
0002c0 e5 33 23 be 4d 87 2d be 25 06 b2 bc 8e 5d fc 3d
       -0.15937765 -0.16946144 -0.021731446 0.12322532
0002d0 e2 86 b9 3d 6e 77 43 3d 29 42 cc 3d f6 14 58 3d
       0.0905893 0.04772132 0.099735565 0.052754365
0002e0 37 71 79 3d 97 97 90 3d 09 a0 2f bd bd e3 b3 bd
       0.060898986 0.070601635 -0.04287723 -0.08783672
0002f0 b0 d7 cf bd bc 1a 24 be 3d de 33 3d 5c ff 5c bd
       -0.10148561 -0.16025823 0.043913115 -0.053954467
000300 bc a5 3e 3d 77 90 c2 3e 88 1a 89 3d 90 4c 5a bd
       0.046544775 0.38000843 0.066945136 -0.053295672
000310 7c 3c 24 bc 03 d0 ad bd f3 13 13 3e af 30 24 be
       -0.010024186 -0.08486941 0.14363079 -0.16034196
000320 29 54 da bd d1 c0 5f be c3 5b aa bd ff 80 25 be
       -0.106605835 -0.21850897 -0.083182834 -0.1616249
000330 5b f2 bd bd 54 85 6b bd 9a 94 70 3d a6 2a 31 3e
       -0.09274741 -0.0575002 0.058735467 0.17301425
000340 da 23 a2 3d 5b a5 98 3d a7 90 9b bd fa 85 b8 bd
       0.079169944 0.07453414 -0.075959496 -0.09009929
000350 a0 68 85 bb 15 fc 22 3d f2 4c df bc a2 b4 ab bd
       -0.00407131 0.039791185 -0.02725837 -0.08384062
000360 2d a5 0c be 76 b8 f9 bd 9a cf af bd 6b 6e c1 bd
       -0.13734885 -0.12193386 -0.08584519 -0.09444889
000370 eb 22 3c 3d 74 b4 a6 3e 0b 5a 4f 3d d5 6a e3 bb
       0.045931738 0.3255955 0.05062298 -0.0069402256
000380 79 a6 19 3e 7b 59 f9 3c 3e 58 31 3d 52 73 c2 bd
       0.1500491 0.030438175 0.043297045 -0.09494652
000390 9a bc e8 bd 32 4e 6c be cf 07 c3 bd 72 8c 16 bd
       -0.11364098 -0.23076704 -0.09522974 -0.036755033
0003a0 a8 a7 91 bd ae a9 99 3c c1 db 72 3d 6c d3 6d 3e
       -0.07112056 0.018757667 0.059291605 0.23225182
0003b0 b9 be 16 3e 3d 17 23 3e 59 d5 13 bc a1 9b 38 be
       0.14721192 0.15926833 -0.009023034 -0.18028118
0003c0 72 e9 96 bd bf fc 8c bc ae ae 3c bd a3 f3 80 bc
       -0.07368745 -0.017210362 -0.046065025 -0.015741175
0003d0 6a c4 5b bd 2a 9c 3c be 95 01 17 be cc f4 92 3d
       -0.053654112 -0.18418947 -0.14746697 0.071755975
0003e0 05 4c e9 3d bc fc 67 3e 8d 49 d3 3d c1 8c 50 3d
       0.11391453 0.22655004 0.10316763 0.050915483
0003f0 bc de a7 3c 22 9f 58 bd b6 19 ec 3d ae 18 9a 3d
       0.02049195 -0.052886136 0.115283415 0.075242385

bias f4 [128]
000000 e6 4f 04 3e 68 fa 69 bd 97 8b 32 3b 02 1b c8 3d
       0.12921104 -0.05712357 0.0027243847 0.09770776
000010 76 df 1e 3e 46 a5 c4 3d 50 21 6f 3d 99 fa 3e 3d
       0.15514931 0.09601836 0.05838138 0.046625707
000020 bf 00 31 3e 37 a7 58 3e d6 1a ec 3d 50 f9 05 bd
       0.17285441 0.21157537 0.11528556 -0.032708466
000030 39 d7 40 3e 8d ad e5 3d fe 12 5f 3d 33 ba 0e be
       0.18832101 0.11214743 0.05446147 -0.13938217
000040 3a c6 ec 3d f5 7f a5 3d 32 88 b3 3d 04 51 c2 bc
       0.11561246 0.080810465 0.087662116 -0.023720272
000050 1c d6 38 3e 4e 03 18 3e 36 7f b2 bd e4 e6 6c 3d
       0.18050426 0.1484501 -0.0871567 0.057837382
000060 e5 60 e9 bd ad 14 48 bd f4 96 0b 3e 83 67 1c 3e
       -0.11395434 -0.048847843 0.13631803 0.15273862
000070 6d d0 af bc 2e 00 9e 3d 39 cf 24 3e 21 56 92 bd
       -0.02146169 0.07714878 0.16094674 -0.07145334
000080 80 74 cb 3d 04 19 5c 3e 7b f3 4b bd 71 10 42 3d
       0.0993433 0.21493918 -0.049792748 0.04737896
000090 24 6a 06 be 24 8c fb 3d 44 e7 b3 3d 50 e7 35 3d
       -0.13126427 0.12282589 0.08784345 0.04441005
0000a0 85 c1 e6 bd 24 70 dc 3d dd 05 7a 3d e1 b4 ff 3d
       -0.1126738 0.107635766 0.061040748 0.12485672
0000b0 b2 4b 84 3d c8 b4 62 bc e0 27 64 bc 26 10 bb 3d
       0.0645975 -0.013837047 -0.013925523 0.091339394
0000c0 1c ba 62 bd 16 ea c7 3c 1e ba 62 3d 70 df 7d 3d
       -0.05535327 0.024403613 0.055353276 0.061980665
0000d0 4e a5 f7 bc 6f cc 5d 3d 2e b8 08 be c8 6c 1c 3e
       -0.03023019 0.05415004 -0.13351509 0.15275872
0000e0 ca de 84 3d b0 5b e5 bd 9e 6d 8b 3d b4 c9 09 3d
       0.06487806 -0.11199129 0.06808017 0.033639625
0000f0 e3 14 46 bd ba 05 74 bd bc ed 23 bc 82 58 f3 3b
       -0.048359763 -0.059575774 -0.010005411 0.0074263224
000100 de c5 5c bc c8 0e a6 bd b4 32 6a 3d 9f db e2 bd
       -0.01347491 -0.08108288 0.05717726 -0.11077046
000110 af a8 a2 3d f3 43 47 3e fa 01 ec 3d 0c c0 ea bd
       0.0794233 0.19459514 0.115238145 -0.11462411
000120 af 75 8e 3d e1 fa 7a 3e 1f f7 d1 bc 57 6e ab bc
       0.0695604 0.24509765 -0.025630532 -0.020926638
000130 07 96 72 3d a7 02 37 3e 33 6e 1a 3d eb a6 b7 bc
       0.05922511 0.17872106 0.03770275 -0.02241846
000140 70 60 de 3d 2b 48 31 3e 49 c8 25 bd e1 ad 3f 3d
       0.10858238 0.17312686 -0.04047421 0.046796683
000150 1b 50 03 3e 31 b6 99 3d 35 60 b1 3d fb a4 14 bd
       0.12823527 0.075054534 0.08660928 -0.03629015
000160 cb f4 b6 bc 3f 49 d2 3d ec 2a 18 3e 0d 90 02 3d
       -0.022333523 0.10267877 0.14860123 0.03187566
000170 38 4b a3 3d 04 1e e2 3d c2 ae 41 bd 7f 41 b3 bd
       0.07973331 0.11040881 -0.047285803 -0.08752727
000180 6a 57 20 3d b5 7f 19 3e 66 fe 0b 3d c5 af d7 3d
       0.039145865 0.14990123 0.03417816 0.10531572
000190 a9 d2 a0 bc b8 d8 16 3e 89 d6 87 3d a8 e3 de 3d
       -0.0196317 0.14731109 0.06632716 0.10883266
0001a0 5b 17 14 3d b6 e1 47 3e c6 bc 40 3d 31 78 57 3e
       0.036155086 0.19519696 0.04705503 0.21041943
0001b0 9e 85 32 3e 7b 21 10 be 5c bd e6 3c 57 a8 1b bd
       0.17433783 -0.14075272 0.028166465 -0.03800234
0001c0 22 6e 87 3d 8c 3a 02 be d2 a1 71 3b 24 ca 2a be
       0.06612803 -0.12717646 0.0036870134 -0.16678673
0001d0 e1 d2 05 3d 1e bc e0 3d e5 db 27 3d c4 27 b6 3c
       0.032671813 0.109733805 0.040981192 0.022235759
0001e0 8d da 0c bd 14 66 47 3d cc 9a c4 3d 69 69 d6 bd
       -0.034388114 0.048681334 0.09599838 -0.10469324
0001f0 d6 f6 a6 bc 75 b6 8c 3c c9 af c2 3d b1 bd 8e bd
       -0.020381372 0.017176846 0.095061846 -0.069697745

weight f4 [10, 128]
000000 27 45 bc 3c 50 04 37 3d 7a 91 42 be 71 15 11 be
       0.022982193 0.044681847 -0.19000807 -0.14168335
000010 b3 0b 91 be 80 0e 31 be 36 ca 53 be 72 ac e2 be
       -0.28329238 -0.17290688 -0.20682606 -0.4427219
000020 7a a3 fb 3d 00 1d 08 3e 6d 87 19 be 6c f6 58 bd
       0.1228704 0.13292313 -0.14993067 -0.05296938
000030 03 fa 3a 3e ec 00 13 3e bc 14 14 bf 5c 27 d0 3d
       0.18259434 0.1435582 -0.5784414 0.10163757
000040 40 a1 bf be 91 84 8b be 4d 26 42 3e ae 6b 93 3e
       -0.3742771 -0.27249578 0.18959923 0.2879309
000050 22 e5 81 be 9c 2c f1 be 1b 30 80 3d 7e a1 53 3e
       -0.25370127 -0.47104347 0.062591754 0.20667073
000060 82 87 4e 3e 0f 1c 22 be 17 1a ab 3d ae 36 1f 3d
       0.2016888 -0.15831016 0.083545856 0.038870506
000070 d3 b3 8a 3e a0 6d 85 3e bb fc ee be d7 44 e6 be
       0.2709032 0.260602 -0.46677193 -0.44974396
000080 e7 05 4b 3e ad aa 94 3c 59 72 30 3e 32 75 d8 be
       0.1982647 0.01814779 0.1723112 -0.42276913
000090 00 9b 30 3e b2 bf cb be f8 3a 0a 3e 2e 8a 23 3e
       0.17246628 -0.3979469 0.13499057 0.1597068
0000a0 bc 0c 96 3e 73 af 79 bc c9 f3 f8 bd 69 20 89 3d
       0.2930659 -0.015239584 -0.12155873 0.06695635
0000b0 a5 3c 47 3d 1f 85 32 bf 20 48 3e 3c 49 b3 71 3e
       0.04864182 -0.69734377 0.011613876 0.23603548
0000c0 8b fa 87 3e cd 7a 94 3d 69 3c 93 3c 4f c4 28 bd
       0.26558337 0.07249985 0.017973142 -0.04120284
0000d0 92 b6 26 3c 38 3e c3 be b0 52 a8 3e a3 96 47 be
       0.010175364 -0.38133407 0.32875586 -0.19491057
0000e0 82 1e d9 3d a6 76 42 3e 48 ed ad be 61 39 3d be
       0.10601522 0.18990573 -0.33970094 -0.1847892
0000f0 58 52 50 be cc 78 31 3e 91 95 4f 3e 5b 8e d6 3d
       -0.20343912 0.17331237 0.20271899 0.10476371
000100 7f 3d 60 3e ea 6b b1 be 1b 17 fd 3c 29 a4 8b 3d
       0.21898459 -0.34652644 0.030894807 0.068184204
000110 d2 8e 1e bf 03 4a 30 be 9f 09 16 3e 64 b4 91 be
       -0.61936677 -0.17215733 0.14652108 -0.2845794
000120 b8 e5 bd 3d 78 cf 81 bd 08 a4 83 bd 3c 12 8e be
       0.09272331 -0.063384 -0.06427771 -0.27748287
000130 2f 6a d3 3d 44 c8 32 bd 11 87 04 3d 39 e5 2a bd
       0.10322987 -0.04364802 0.032355372 -0.04172251
000140 3d 38 d8 be 74 98 c7 be 47 bd d3 be 9c 3e 3f bd
       -0.42230406 -0.389835 -0.41355345 -0.04669057
000150 fd 96 a6 be cc b3 29 3d cd 5a 1c 3e 87 52 ba be
       -0.3253707 0.041431233 0.15269013 -0.36391088
000160 9d 2e e2 bd 21 78 f5 3d 3e ff d5 3d 0f 41 ea bc
       -0.11044047 0.119858034 0.10449074 -0.028595475
000170 2a 85 90 bd f2 8d 39 3e 58 f1 95 be d2 6f 1e 3e
       -0.07056649 0.18120554 -0.29285693 0.15472344
000180 1e e8 1a be 37 23 19 bf e6 c5 3b bf 8d ff 2e 3e
       -0.15127608 -0.5981936 -0.73348844 0.17089672
000190 a4 12 29 bd a5 09 43 bf 54 14 d8 bd 23 11 d4 bd
       -0.041277543 -0.7618659 -0.10550752 -0.10354831
0001a0 c9 c1 c7 3d 60 f0 0b 3e cc ac dd bd 52 cb 6c be
       0.097537585 0.13665915 -0.10823974 -0.23124436
0001b0 c7 cf 1b bd 8a 50 1d bf 1e 8b d6 bd 75 ac 77 3d
       -0.03803995 -0.6145102 -0.10475753 0.060467202
0001c0 26 2c 36 be ec 13 f2 be 5d 43 2b be 2a 7f 7c 3e
       -0.17790279 -0.47280824 -0.16724916 0.24657884
0001d0 1f 5b dd be 6e ed 57 3e fb 55 80 be 4d bd 0c 3e
       -0.43233582 0.21086666 -0.25065598 0.13744088
0001e0 98 ca 79 be e4 76 03 bd 8a b6 29 3d 6c 22 0d be
       -0.2439369 -0.032095805 0.04143385 -0.13782662
0001f0 8d 6a 8f 3e d3 98 0c 3e d6 b8 09 3e 82 cc 75 3e
       0.2801098 0.13730173 0.13449416 0.24003795
000200 85 d2 1c be 7a ee 63 3d d5 05 ab 3d d7 68 9d 3c
       -0.15314682 0.05564735 0.08350722 0.01921503
000210 c8 19 e1 be ca cc ed be 61 04 f3 bd 80 83 52 ba
       -0.43964982 -0.46445304 -0.118660696 -0.0008030459
000220 5d 12 fb be 9a d1 fc 3e 9e 29 5a be de f0 a8 3e
       -0.49037448 0.49378663 -0.21304938 0.32996267
000230 2a 9c 54 bc d1 80 af 3d ba be da 3d a5 9a e5 bc
       -0.012976686 0.08569492 0.106809095 -0.028027842
000240 28 5b 90 3e c6 82 45 3d 62 22 c2 3e 09 64 85 3d
       0.28194547 0.04822042 0.37916857 0.06513221
000250 13 ca 25 3d ce ec 20 3e 34 79 33 bf 55 43 c5 bd
       0.040475916 0.15715334 -0.70106816 -0.09631983
000260 c9 1d 06 3e fd 35 05 be 0c 19 6c be 77 c7 89 be
       0.130973 -0.13008876 -0.2305643 -0.26909992
000270 10 04 86 3e 14 ea 90 3d cf 7a 0b be 5a 58 e4 3c
       0.26174974 0.07075897 -0.13621067 0.02787416
000280 4b fe 9f be 7c b6 4c 3e 5f 13 47 3e bb 75 1e 3d
       -0.31248698 0.19991487 0.19440983 0.038686495
000290 96 ed 71 3e 31 ab c8 3d 4d e0 90 3d fc b2 f4 be
       0.23625788 0.09798277 0.07074032 -0.47792804
0002a0 37 57 0b be 38 c0 19 bf a0 2d 64 3c df 9c 56 be
       -0.13607489 -0.6005893 0.0139268935 -0.20958279
0002b0 38 aa 0b bd f8 6e e0 be 6f 22 85 be a7 f4 4f 3d
       -0.03409788 -0.43834662 -0.26002833 0.050770428
0002c0 be 0d 0e bf 08 38 4b be 20 b8 38 be f6 eb ea 3d
       -0.5548972 -0.19845593 -0.18038988 0.11470787
0002d0 f7 ea 18 3d 95 f5 7a 3e 3c 09 83 3e 67 35 c9 3c
       0.037333455 0.24507745 0.25592983 0.024561597
0002e0 e0 3b 3d be 28 02 ec be 3a 5f 91 be 70 97 1a be
       -0.18479872 -0.46095395 -0.28392965 -0.15096831
0002f0 b6 f8 71 3e 09 fb 60 bc 4d ba 42 be 78 a1 92 be
       0.23630032 -0.013731726 -0.1901638 -0.28638816
000300 8c 59 aa be 5e 7c 34 3e 69 70 c8 bd 2b 29 7a 3d
       -0.33271444 0.17625567 -0.097870655 0.061074417
000310 c3 d9 f9 3e 5e 55 3b 3e 13 77 57 be 39 19 3e 3e
       0.48798952 0.18294284 -0.21041517 0.18564309
000320 ec c2 ec be d7 2e b2 3e 0b fe d5 3e 05 54 db bd
       -0.46242464 0.3480136 0.41795382 -0.10709385
000330 77 e7 f1 3d a0 ad 39 bd 10 62 be be e7 aa b8 3d
       0.118117265 -0.045331597 -0.3718419 0.09016972
000340 17 34 5c bd 66 b7 fe be 1a 63 42 3e cf 83 74 3d
       -0.053760614 -0.49749297 0.18983117 0.059696015
000350 20 58 22 3e 3a 13 69 3d 48 7c 17 be 74 bd 91 3e
       0.1585393 0.0569031 -0.14793503 0.28464854
000360 95 a5 70 be f4 61 4a bd 40 db 4c be 03 a9 8c 3d
       -0.23500665 -0.04940982 -0.20005512 0.06868174
000370 f0 c6 b0 3c 7c bc 5b 3e dd e4 d5 bb 2b 02 95 3d
       0.021579236 0.2145862 -0.006527527 0.07275804
000380 97 7e 29 3e 0e 11 70 bd d8 1d c8 3d 99 22 01 3f
       0.16552196 -0.058610015 0.09771317 0.50443417
000390 79 e2 6a bc 58 49 b6 bd fd 76 8e 3c 6f 41 18 be
       -0.014336222 -0.08900708 0.017390722 -0.14868711
0003a0 2c 91 19 3f a5 55 b4 bd 14 58 49 3d d9 ad c6 3d
       0.5998714 -0.08805398 0.049156263 0.097011276
0003b0 1f 57 16 3e 95 53 15 3e 15 5f 2b be aa 31 2c be
       0.14681672 0.14582665 -0.1673549 -0.1681582
0003c0 5b 73 d6 be 96 d2 de 3d b2 db a4 3e 1c 34 b5 bd
       -0.41884884 0.1088001 0.32198864 -0.0884783
0003d0 14 39 97 3d 02 f7 11 bf 35 0d 31 bf a1 02 ee be
       0.07383934 -0.5701753 -0.6916078 -0.4648638
0003e0 a4 a5 8b 3d 74 75 60 bd 3b e6 a0 be e6 ae 1a 3e
       0.06818703 -0.054799512 -0.31425652 0.15105781
0003f0 51 19 b7 3e 00 42 a0 3d ea f2 9e be 74 2a d5 bd
       0.35761502 0.078250885 -0.31044704 -0.10408488

bias f4 [10]
000000 9f 8d 22 be e5 81 f0 bd 30 b6 69 ba 27 94 69 bd
       -0.15874337 -0.117435254 -0.00089153927 -0.057026055
000010 8b 52 b7 bc b4 1c ca 3d 90 ec b6 3d d5 ba 08 be
       -0.022378227 0.09868756 0.089318395 -0.13352521
000020 fa 2e 08 3e 1d d0 b0 bd
       0.1329917 -0.086334445
